…
es grad: True\n","output_type":"stream"}]},{"cell_type":"code","source":"DEVICE=\"cuda\" if torch.cuda.is_available() else \"cpu\"\nEPOCHS=8\nencoder_model.to(DEVICE)\n","metadata":{"execution":{"iopub.status.busy":"2024-07-23T08:11:21.109888Z","iopub.execute_input":"2024-07-23T08:11:21.110192Z","iopub.status.idle":"2024-07-23T08:11:21.597359Z","shell.execute_reply.started":"2024-07-23T08:11:21.110153Z","shell.execute_reply":"2024-07-23T08:11:21.596412Z"},"trusted":true},"execution_count":18,"outputs":[{"execution_count":18,"output_type":"execute_result","data":{"text/plain":"CNN_MODEL(\n  (c1): Conv2d(3, 32, kernel_size=(3, 3), stride=(1, 1), padding=(1, 1))\n  (bn1): BatchNorm2d(32, eps=1e-05, momentum=0.1, affine=True, track_running_stats=True)\n  (c1_): Conv2d(32, 32, kernel_size=(3, 3), stride=(1, 1), padding=(1, 1))\n  (bn1_): BatchNorm2d(32, eps=1e-05, momentum=0.1, affine=True, track_running_stats=True)\n  (m1): MaxPool2d(kernel_size=2, stride=2, padding=0, dilation=1, ceil_mode=False)\n  (c2): Conv2d(32, 128, kernel_size=(3, 3), stride=(1, 1), padding=(1, 1))\n  (bn2): BatchNorm2d(128, eps=1e-05, momentum=0.1, affine=True, track_running_stats=True)\n  (c2_): Conv2d(128, 128, kernel_size=(3, 3), stride=(1, 1), padding=(1, 1))\n  (bn2_): BatchNorm2d(128, eps=1e-05, momentum=0.1, affine=True, track_running_stats=True)\n  (m2): MaxPool2d(kernel_size=2, stride=2, padding=0, dilation=1, ceil_mode=False)\n  (c3): Conv2d(128, 256, kernel_size=(3, 3), stride=(1, 1), padding=(1, 1))\n  (bn3): BatchNorm2d(256, eps=1e-05, momentum=0.1, affine=True, track_running_stats=True)\n  (c3_): Conv2d(256, 256, kernel_size=(3, 3), stride=(1, 1), padding=(1, 1))\n  (bn3_): BatchNorm2d(256, eps=1e-05, momentum=0.1, affine=True, track_running_stats=True)\n  (m3): MaxPool2d(kernel_size=2, stride=2, padding=0, dilation=1, ceil_mode=False)\n  (c4): Conv2d(256, 512, kernel_size=(3, 3), stride=(1, 1), padding=(1, 1))\n  (bn4): BatchNorm2d(512, eps=1e-05, momentum=0.1, affine=True, track_running_stats=True)\n  (c4_): Conv2d(512, 512, kernel_size=(3, 3), stride=(1, 1), padding=(1, 1))\n  (bn4_): BatchNorm2d(512, eps=1e-05, momentum=0.1, affine=True, track_running_stats=True)\n  (activation): ReLU()\n  (drop): Dropout(p=0.2, inplace=False)\n  (fc): Linear(in_features=524288, out_features=512, bias=True)\n  (multihead_attn): MultiheadAttention(\n    (out_proj): NonDynamicallyQuantizableLinear(in_features=512, out_features=512, bias=True)\n  )\n  (fc1): Linear(in_features=512, out_features=256, bias=True)\n  (drop_fc): Dropout(p=0.2, inplace=False)\n  (fc2): Linear(in_features=256, out_features=2, bias=True)\n)"},"metadata":{}}]},{"cell_type":"code","source":"import torch\n\n# Setting the default tensor type to CUDA\ntorch.set_default_tensor_type(torch.cuda.FloatTensor)\n\nencoder_model.cuda()","metadata":{"execution":{"iopub.status.busy":"2024-07-23T08:11:21.598486Z","iopub.execute_input":"2024-07-23T08:11:21.598792Z","iopub.status.idle":"2024-07-23T08:11:2
…
60Z","shell.execute_reply":"2024-07-23T08:11:21.607059Z"},"trusted":true},"execution_count":19,"outputs":[{"name":"stderr","text":"/opt/conda/lib/python3.10/site-packages/torch/__init__.py:614: UserWarning: torch.set_default_tensor_type() is deprecated as of PyTorch 2.1, please use torch.set_default_dtype() and torch.set_default_device() as alternatives. (Triggered internally at /usr/local/src/pytorch/torch/csrc/tensor/python_tensor.cpp:451.)\n  _C._set_default_tensor_type(t)\n","output_type":"stream"},{"execution_count":19,"output_type":"execute_result","data":{"text/plain":"CNN_MODEL(\n  (c1): Conv2d(3, 32, kernel_size=(3, 3), stride=(1, 1), padding=(1, 1))\n  (bn1): BatchNorm2d(32, eps=1e-05, momentum=0.1, affine=True, track_running_stats=True)\n  (c1_): Conv2d(32, 32, kernel_size=(3, 3), stride=(1, 1), padding=(1, 1))\n  (bn1_): BatchNorm2d(32, eps=1e-05, momentum=0.1, affine=True, track_running_stats=True)\n  (m1): MaxPool2d(kernel_size=2, stride=2, padding=0, dilation=1, ceil_mode=False)\n  (c2): Conv2d(32, 128, kernel_size=(3, 3), stride=(1, 1), padding=(1, 1))\n  (bn2): BatchNorm2d(128, eps=1e-05, momentum=0.1, affine=True, track_running_stats=True)\n  (c2_): Conv2d(128, 128, kernel_size=(3, 3), stride=(1, 1), padding=(1, 1))\n  (bn2_): BatchNorm2d(128, eps=1e-05, momentum=0.1, affine=True, track_running_stats=True)\n  (m2): MaxPool2d(kernel_size=2, stride=2, padding=0, dilation=1, ceil_mode=False)\n  (c3): Conv2d(128, 256, kernel_size=(3, 3), stride=(1, 1), padding=(1, 1))\n  (bn3): BatchNorm2d(256, eps=1e-05, momentum=0.1, affine=True, track_running_stats=True)\n  (c3_): Conv2d(256, 256, kernel_size=(3, 3), stride=(1, 1), padding=(1, 1))\n  (bn3_): BatchNorm2d(256, eps=1e-05, momentum=0.1, affine=True, track_running_stats=True)\n  (m3): MaxPool2d(kernel_size=2, stride=2, padding=0, dilation=1, ceil_mode=False)\n  (c4): Conv2d(256, 512, kernel_size=(3, 3), stride=(1, 1), padding=(1, 1))\n  (bn4): BatchNorm2d(512, eps=1e-05, momentum=0.1, affine=True, track_running_stats=True)\n  (c4_): Conv2d(512, 512, kernel_size=(3, 3), stride=(1, 1), padding=(1, 1))\n  (bn4_): BatchNorm2d(512, eps=1e-05, momentum=0.1, affine=True, track_running_stats=True)\n  (activation): ReLU()\n  (drop): Dropout(p=0.2, inplace=False)\n  (fc): Linear(in_features=524288, out_features=512, bias=True)\n  (multihead_attn): MultiheadAttention(\n    (out_proj): NonDynamicallyQuantizableLinear(in_features=512, out_features=512, bias=True)\n  )\n  (fc1): Linear(in_features=512, out_features=256, bias=True)\n  (drop_fc): Dropout(p=0.2, inplace=False)\n  (fc2): Linear(in_features=256, out_features=2, bias=True)\n)"},"metadata":{}}]},{"cell_type":"code","source":"scheduler=torch.optim.lr_scheduler.StepLR(optimizer, gamma=0.9, step_size=3)","metadata":{"execution":{"iopub.status.busy":"2024-07-23T08:11:21.609215Z","iopub.execute_input":"2024-07-23T08:11:21.609842Z","iopub.status.idle":"2024-07-23T08:11:21.616127Z","shell.execute_reply.started":"2024-07-23T08:11:2
…
